model/keypoint_classifier/keypoint_classifier.tflite (tflite, 6960 bytes, 6 tensors)

dense_5/bias f4 [16]
0	0xbf503a87	-0.81339306
1	0xbf28e893	-0.6597988
2	0x3f346886	0.7047199
3	0xbd93791a	-0.07200833
4	0x3f735b54	0.9506123
5	0x3f798189	0.9746328
6	0xbf1c7c0a	-0.6112677
7	0x3d1fb9b3	0.038995456
8	0x3f448410	0.7676401
9	0x3f985ba2	1.1902964
10	0xbfd88e22	-1.6918375
11	0xbf0b58ca	-0.54432356
12	0x3d25251d	0.040318597
13	0xbe380b14	-0.17972976
14	0xbf83a321	-1.0284158
15	0x3f1cadcf	0.6120271

dense_4/bias f4 [10]
0	0x3fa7cc31	1.3109189
1	0x3f386a10	0.7203684
2	0x3ff60283	1.9219517
3	0x3ed66cb3	0.41879806
4	0xbf00a0c2	-0.50245297
5	0xbdd1aead	-0.10238395
6	0x3e3fbc13	0.18724088
7	0x3f1e842f	0.61920446
8	0x3d9ab2f2	0.07553662
9	0x3eb7f02d	0.35925427

dense_3/bias f4 [20]
0	0xbe147861	-0.14499046
1	0x3e0dd500	0.13850784
2	0xbf2c835f	-0.67387956
3	0x3e6c4586	0.23073396
4	0x3f25ded4	0.64793134
5	0xbe077553	-0.1322835
6	0xbf3004a5	-0.68757087
7	0x3d0e6e49	0.034773145
8	0xbf5f1fe5	-0.8715804
9	0x3f0e6eb1	0.5563765
10	0x3c6593a2	0.014012249
11	0x3f0daff3	0.553466
12	0xbf76e256	-0.9643911
13	0xbf23da43	-0.64004916
14	0x3f827e3a	1.0194771
15	0xbf8ea5b1	-1.1144315
16	0xbec7ce1f	-0.39024445
17	0xbcb3cedd	-0.021949226
18	0xbf95edf1	-1.1713239
19	0xbe4c0167	-0.1992241

sequential_1/dense_3/MatMul f4 [20, 42]
0	0xbde05dfa	-0.109554246
1	0xbe6de652	-0.23232391
2	0xbdc5726d	-0.096409656
3	0xbe245fe3	-0.16052203
4	0xbe16aed7	-0.14715134
5	0xbd217efb	-0.03942774
6	0xbbcbd3ab	-0.006220301
7	0xbe01f2b0	-0.12690234
8	0x3d1ba3f9	0.037998173
9	0xbe549cba	-0.20762911
10	0x3d8682ca	0.06567915
11	0x3ecdcb70	0.40194273
12	0x3bea30ca	0.0071469294
13	0x3e54f853	0.20797853
14	0xbd16f08a	-0.03685049
15	0x3d86286c	0.065506786
16	0xbdb2ebea	-0.08736403
17	0xbca5ad5f	-0.020224271
18	0x3dd827a7	0.10554438
19	0x3f0b3e7b	0.5439221
20	0x3c355497	0.011067531
21	0x3e5f45c7	0.21803962
22	0xbd2f75b1	-0.04283685
23	0xbc1f895c	-0.009737339
24	0xbdade15e	-0.08490251
25	0x3c51792e	0.012785239
26	0x3d4c8bd5	0.04993804
27	0x3f26a9dd	0.6510294
28	0x3d83e587	0.06440263
29	0x3e206d64	0.15666729
30	0x3cede830	0.02904138
31	0xbe592006	-0.21203622
32	0xbd82df8e	-0.06390296
33	0xbe042a59	-0.1290678
34	0x3c76c60e	0.015061868
35	0x3effbdcf	0.499495
36	0xbafc4974	-0.0019247965
37	0xbe5e97a6	-0.21737537
38	0x3d08dec8	0.033415586
39	0xbff0bd34	-1.880774
40	0xbe2185c5	-0.15773685
41	0xbfa2333c	-1.2671885
42	0x3e049bda	0.12950078
43	0xbe3e941b	-0.18611185
44	0x3d776ff8	0.060409516
45	0x3efeb0d5	0.49744287
46	0x3e03963a	0.12850276
47	0x3f0d17d0	0.5511446
48	0x3cd294fb	0.025705805
49	0x3efbff6c	0.4921831
50	0xbe0f2622	-0.1397939
51	0x3ec8bcf1	0.3920665
52	0xbec2eeef	-0.38072917
53	0x3f4d539e	0.80205715
54	0xbf0d27e9	-0.55139023
55	0x3ee8d894	0.45477736
56	0xbf07a522	-0.5298635
57	0x3e26449d	0.16237111
58	0xbf14bfa9	-0.5810495
59	0x3e004db8	0.12529647
60	0xbe8c2455	-0.2737147
61	0x3f40c80b	0.7530524
62	0xbf0b213d	-0.5434759
63	0x3ed0a71d	0.40752497
64	0xbf54ee7f	-0.83176416
65	0x3ea654f0	0.32486677
66	0xbf835376	-1.0259845
67	0x3e729db2	0.23692968
68	0xbe9f6bed	-0.31137028
69	0x3f59290c	0.8482826
70	0xbeb1af96	-0.34704274
71	0x3f157ce9	0.5839372
72	0xbefde77d	-0.49590674
73	0x3ee09ec0	0.43871117
74	0xbf0c6fba	-0.5485798
75	0x3e5ec805	0.21755989
76	0xbec4df82	-0.38451773
77	0x3f329894	0.69764066
78	0xbe7c415d	-0.24634309
79	0x3f1ac78a	0.6046072
80	0xbed033af	-0.4066443
81	0x3e852e98	0.2601211
82	0xbef664ab	-0.4812368
83	0x3ea8bc47	0.32956144
84	0xbdedcca4	-0.11611298
85	0xbdbf83d2	-0.093513146
86	0x3e2f04a1	0.1709161
87	0x3e0a41fb	0.13501732
88	0xbbc4bd5a	-0.006004018
89	0x3b642112	0.003480975
90	0xbd81a4dc	-0.063302726
91	0x3d513992	0.051080294
92	0xbe575970	-0.21030211
93	0x3d83aa91	0.06429017
94	0x3d85863d	0.065197445
95	0xbf479706	-0.7796482
96	0x3d4c4e2f	0.04987925
97	0xbe1f9210	-0.15583062
98	0xbe12fbb1	-0.14353825
99	0x3ea29a0b	0.3175815
100	0xbe918f19	-0.28429487
101	0x3ee3324c	0.4437431
102	0x3d9fb7ed	0.07798753
103	0xbf64068b	-0.89072484
104	0x3cca4a90	0.024693757
105	0xbbf96f3c	-0.007612137
106	0xbd82afc4	-0.06381181
107	0x3eb0d869	0.34540108
108	0xbe3cb44a	-0.1842815
109	0x3ea9ff74	0.33202708
110	0x3d9ce18f	0.076602094
111	0xbf9390fa	-1.1528618
112	0x3cf7a647	0.030230654
113	0xbda66522	-0.08124758
114	0xbc1c8e5d	-0.009555426
115	0x3e8d1123	0.27552137
116	0xbce69bd9	-0.028150486
117	0x3e9573e4	0.2918998
118	0xbd029f24	-0.03189005
119	0xbfb56508	-1.4171457
120	0x3de9ef48	0.114225924
121	0xbf2ba650	-0.6705065
122	0x3e234116	0.15942797
123	0xbec24b0b	-0.37947878
124	0x3e44c536	0.19215855
125	0xbf036129	-0.5132013
126	0xbe357876	-0.17721733
127	0x3de49ab0	0.11162317
128	0x3e4bdb8f	0.19907974
129	0x3f83df85	1.0302588
130	0x3e4868bf	0.19571207
131	0x3f4cee28	0.800509
132	0x3e8814c6	0.2657835
133	0x3f35a1df	0.7095012
134	0x3ed20054	0.41015875
135	0x3f10e40b	0.56597966
136	0xbeea52f3	-0.4576641
137	0x3f14511a	0.5793625
138	0x3d8b965c	0.06815788
139	0x3edd5cfe	0.4323501
140	0x3e9ff116	0.3123862
141	0x3ee7bd5f	0.45261666
142	0x3ed0fa96	0.40816182
143	0x3f1bd60b	0.6087348
144	0xbf0e71fd	-0.5564268
145	0x3f156c2a	0.5836817
146	0x3e12e879	0.14346494
147	0x3d325300	0.043536186
148	0x3f69b7b1	0.91295916
149	0xbd4b2c93	-0.049603056
150	0x3f961f88	1.1728373
151	0x3d2e7c0b	0.042598765
152	0xbf1f7f77	-0.6230387
153	0x3f01081d	0.50403005
154	0x3dab76dd	0.08372281
155	0x3cd4f722	0.025996748
156	0x3ee39612	0.44450432
157	0xbe64bfbb	-0.22338764
158	0x3f243c87	0.6415486
159	0xbe2815f4	-0.16414624
160	0xbf306e4f	-0.6891832
161	0x3e8c3841	0.27386668
162	0x3d85b4fa	0.06528659
163	0xbdb89703	-0.09013178
164	0x3e92a06c	0.28638017
165	0xbe8e37af	-0.27776858
166	0x3ef9a842	0.48761183
167	0xbe0fa2c7	-0.14026938
168	0xbe5d5564	-0.21614605
169	0x3e92b5a8	0.28654218
170	0x3e23270f	0.15932868
171	0x401db941	2.464432
172	0xbd32289d	-0.043495763
173	0x3f564b38	0.83708525
174	0x3c92d87d	0.017925495
175	0x3e9f9c23	0.3117381
176	0x3c55d34b	0.013050864
177	0x3e1ea864	0.15493923
178	0x3c809b35	0.015699008
179	0x3e0408ac	0.12893933
180	0x3c26a101	0.010170222
181	0x3e3534e2	0.17695954
182	0x3c552dc9	0.013011404
183	0x3ee1fc7a	0.44137937
184	0x3d13967e	0.036032192
185	0x3f07cf58	0.53050756
186	0xbca79e12	-0.020461116
187	0xbe5fb4f0	-0.21846366
188	0xbc9cd295	-0.019143382
189	0x3dd79a26	0.10527448
190	0xbdaf3428	-0.0855487
191	0x3eaf4123	0.34229383
192	0xbe02ee0e	-0.12786123
193	0x3eac39c7	0.3363783
194	0xbc425ea7	-0.011863387
195	0xbf1676c3	-0.58774966
196	0x3d009af1	0.031397764
197	0xbdc99276	-0.09842388
198	0x3da63d2b	0.081171356
199	0x3e526a05	0.20548256
200	0x3daa147b	0.083046876
201	0x3e87b995	0.26508775
202	0xbd538d82	-0.051648624
203	0xbf90c115	-1.1308924
204	0x3c5cfd62	0.013488146
205	0xbf1b6abf	-0.60709757
206	0x3da8d1c8	0.082431376
207	0xbf015acc	-0.5052917
208	0x3b253e1d	0.0025214024
209	0xbed90f62	-0.4239455
210	0x3e7b89a8	0.2456423
211	0xbdc387b8	-0.09547371
212	0x3ea26572	0.31718022
213	0x3fe72197	1.8057126
214	0x3d9828af	0.07429635
215	0x3f4a108f	0.78931516
216	0x39ad3652	0.00033037603
217	0x3f0e213f	0.5551948
218	0xbddfbc7b	-0.10924622
219	0x3ed52a47	0.41633818
220	0x3cdca53d	0.02693426
221	0xbe74ef57	-0.23919426
222	0x3cc2b475	0.02376769
223	0xbda3539e	-0.07974933
224	0x3c9535db	0.018214157
225	0x3e0918f7	0.1338843
226	0x3c0cfa07	0.008604533
227	0x3e4f1658	0.20223367
228	0x3d13f9dc	0.036126956
229	0xbf617f69	-0.8808504
230	0x3d863bab	0.065543495
231	0xbdde5ce4	-0.10857561
232	0xbd269fe5	-0.04067983
233	0xbe582eaf	-0.21111558
234	0xbdce5703	-0.1007519
235	0xbed1ad8b	-0.40952715
236	0x3d500c1c	0.0507928
237	0xbf97345e	-1.1812856
238	0x3cde2bb7	0.027120454
239	0xbe2d269a	-0.16909257
240	0x3d8b7bbc	0.0681071
241	0xbe85e348	-0.26149964
242	0x3e765de6	0.24059257
243	0xbee2bc9c	-0.44284523
244	0xbe0dd4f3	-0.13850765
245	0xbfa4b176	-1.2866657
246	0xbdac4647	-0.08411842
247	0x3e847daa	0.25877124
248	0xbe35223c	-0.1768884
249	0x3f0c6f7e	0.54857624
250	0xbeac31aa	-0.3363164
251	0x3ea48ff1	0.3214107
252	0x3e20b51a	0.15694085
253	0xbe077a30	-0.13230205
254	0xbed30fa6	-0.41222876
255	0xbfa38a42	-1.2776568

sequential_1/dense_4/MatMul f4 [10, 20]
0	0x3e8894fe	0.26676172
1	0xbe1e0295	-0.15430672
2	0x3d9107fa	0.070815995
3	0x3e3708d9	0.17874469
4	0xbc8fdd3b	-0.017561546
5	0x3e2bad2f	0.16765283
6	0x3e93dc2c	0.28878915
7	0xbc873a36	-0.01650725
8	0x3cc325b6	0.023821693
9	0xbd284554	-0.04108174
10	0x3de64772	0.11244096
11	0xbe9c548e	-0.3053326
12	0x3e8306f3	0.2559124
13	0x3e4fa6b2	0.20278433
14	0xbd2ad833	-0.04171009
15	0x3d98162c	0.07426104
16	0x3d50f300	0.051012993
17	0x3ee1a017	0.4406745
18	0xbfaa9280	-1.3325958
19	0xbf64c670	-0.8936529
20	0x3f659844	0.89685464
21	0xbe1f0c74	-0.15532094
22	0x3ecdec6e	0.40219444
23	0xbefc7567	-0.4930832
24	0xbeca8269	-0.3955262
25	0x3ecf7c2c	0.40524423
26	0x3f777957	0.96669525
27	0x3ee5ff8b	0.44921526
28	0x3f6488fc	0.8927152
29	0xbfeb9912	-1.8406088
30	0x3f5a7072	0.8532783
31	0xbeecf9a1	-0.46284202
32	0x3f1b2d12	0.60615647
33	0x3f2698a8	0.65076685
34	0xbed8b284	-0.42323697
35	0x3f6b68b1	0.9195662
36	0x3f85effb	1.0463861
37	0x3e48039a	0.19532624
38	0x3f098e74	0.5373299
39	0x3eb890cc	0.3604797
40	0xbe116c16	-0.14201388
41	0x3dbbcbac	0.09169707
42	0x3e5cc5a5	0.2155977
43	0x3dd86888	0.10566813
44	0xbe8b8fa2	-0.2725802
45	0x3ef66391	0.48122838
46	0xbd89b22e	-0.06723438
47	0x3bf2a3e6	0.007404792
48	0x3f647245	0.8923686
49	0x3ed2d14e	0.41175312
50	0xbfe59139	-1.7934943
51	0x3eb12e04	0.3460542
52	0xbdedfe62	-0.11620785
53	0x3ee1d1ca	0.4410537
54	0x3f0689dd	0.5255411
55	0x3ed69283	0.41908655
56	0x3f61032f	0.8789548
57	0xbe3ad87d	-0.18246646
58	0x3e3fa239	0.18714227
59	0xbe4fe926	-0.20303783
60	0x3ef947f3	0.48687705
61	0x3f245569	0.64192826
62	0x3e89fdeb	0.26951537
63	0x3e5e2400	0.2169342
64	0x3f200250	0.6250353
65	0x3e1734ac	0.14766186
66	0xbe7241dd	-0.23657937
67	0xbf1a829a	-0.6035553
68	0xbf0a7509	-0.5408483
69	0x3f0f18d8	0.55897284
70	0x3f89d08c	1.0766768
71	0x3f2bf8eb	0.67176694
72	0x3e217d4b	0.15770452
73	0xbfc96272	-1.5733168
74	0x3ef5027e	0.47853464
75	0xbfa64572	-1.2989943
76	0xbfc2accd	-1.5208985
77	0xbda6980d	-0.0813447
78	0xbfa4938b	-1.2857527
79	0xbe951fe5	-0.29125896
80	0x3d11de66	0.035612486
81	0x3f039a89	0.51407677
82	0xc0323c75	-2.78494
83	0x3e9c0977	0.3047597
84	0x3ebf8445	0.374056
85	0xbf77ee5e	-0.96848094
86	0x3d58d707	0.05293944
87	0x3ece1922	0.4025355
88	0x3c9a0147	0.018799437
89	0x3f7b1d70	0.98091793
90	0x3d9c5256	0.07632892
91	0x3f4a24f8	0.7896266
92	0xbda0cc32	-0.07851447
93	0xbeec2f8d	-0.46130028
94	0x3f71dcf3	0.94477767
95	0xbcf52272	-0.029923651
96	0x3c8e7a11	0.01739219
97	0x3d9b6673	0.075879
98	0xbda1fe5e	-0.07909845
99	0x3ec1b506	0.37833422
100	0x3f89edc4	1.0775685
101	0x3e8775f6	0.26457185
102	0x3c3bea30	0.011469409
103	0x3f446f58	0.767324
104	0xbf1d5c99	-0.6146942
105	0x3e18e9b4	0.149329
106	0x3e487fc2	0.19579986
107	0x3fae3aaf	1.3611659
108	0x3f194b08	0.59880114
109	0xbf7b48c1	-0.9815789
110	0x3f9e1e37	1.2352971
111	0x3efdf4ce	0.49600834
112	0x3f3c68c6	0.7359737
113	0x3f86894f	1.0510653
114	0xbe3f6e97	-0.1869453
115	0x3f059060	0.52173424
116	0x3f364592	0.71199906
117	0x3e14c1bf	0.14527033
118	0x3ed932a0	0.42421436
119	0x3f0bfb9d	0.54680806
120	0x3e098dbe	0.13432977
121	0x3f46df2e	0.77684295
122	0x3d219b6a	0.039454855
123	0xbfa06700	-1.2531433
124	0xbd118acb	-0.035532754
125	0x3dcc060b	0.0996209
126	0xbffc02cf	-1.9688357
127	0xbe774bf4	-0.24150068
128	0x3e7b8804	0.24563605
129	0x3e7dbcdb	0.24779074
130	0x3dc6cf71	0.09707535
131	0x3f31555a	0.6927086
132	0x3c795f03	0.015220406
133	0x3d3e2049	0.04641751
134	0x3e105412	0.1409457
135	0xbf6c4601	-0.9229432
136	0x3f6754ef	0.90363973
137	0xc03b7601	-2.9290774
138	0x3f84a9aa	1.0364277
139	0xc00fc1f6	-2.2462134
140	0x3f44f400	0.76934814
141	0xbeb12832	-0.3460098
142	0x3f87d81f	1.061283
143	0x3f036006	0.51318395
144	0x3fc4bf45	1.5370871
145	0x3fcc738a	1.597276
146	0x3d809bdd	0.062797286
147	0x3f79d0f7	0.9758448
148	0xbc66face	-0.014097882
149	0x3eb0884c	0.34478986
150	0x3edd75e2	0.43254
151	0x3e153be5	0.14573629
152	0x3f21f26f	0.6326055
153	0x3f83a5b2	1.0284941
154	0x3e9b2a19	0.30305555
155	0x3f2f5e3c	0.68503165
156	0xbaf4d235	-0.0018678369
157	0x3c146fd7	0.009059868
158	0x3a57ed7c	0.0008236987
159	0xbeb16b4d	-0.34652176
160	0xbdaf898a	-0.08571155
161	0x3f82400c	1.0175796
162	0x3dfc305a	0.1231391
163	0x3f745ec8	0.95457125
164	0x3cf1a95c	0.029499702
165	0x3d8a95cf	0.06766855
166	0x3fb9f8da	1.4529068
167	0xbed418e5	-0.41425243
168	0x3f035596	0.5130247
169	0x3ecf9388	0.40542245
170	0xbdf15e05	-0.11785511
171	0x3f628f90	0.8850031
172	0xbcebad9b	-0.028769305
173	0x3d2156dc	0.039389476
174	0x3f5b0183	0.8554918
175	0x3f44d0e6	0.76881254
176	0x3dcb506e	0.0992745
177	0x3f9d6975	1.2297808
178	0x3f62814f	0.8847856
179	0x3fc696b1	1.5514737
180	0x3f39876c	0.7247226
181	0xbe87effc	-0.2655028
182	0x3f245824	0.6419699
183	0xbe5c41a1	-0.2150941
184	0x3f6afeb5	0.917949
185	0x3eb8e9e4	0.36115944
186	0x3dab1a03	0.08354571
187	0xbe32a979	-0.17447461
188	0x3f62b5e7	0.8855881
189	0xc0027060	-2.0381088
190	0x3f141543	0.5784494
191	0xbf795c3b	-0.9740636
192	0x3f6f1403	0.9338991
193	0x3e0b6dcd	0.13616104
194	0xbfe94e11	-1.8226949
195	0xbebdb60f	-0.37052962
196	0x3e83c9bd	0.25739852
197	0x3dc76dd7	0.09737747
198	0xbeafe39e	-0.34353346
199	0x3ee2c4df	0.44290826

sequential_1/dense_5/MatMul f4 [16, 10]
0	0xbe992c35	-0.2991654
1	0xbe978edb	-0.29601178
2	0xbf44c985	-0.76869994
3	0xbea95e5e	-0.3307981
4	0xbd8be2bc	-0.068303555
5	0x3ee5349e	0.44766706
6	0x3f08aac0	0.53385544
7	0x3f5e26cc	0.8677795
8	0x3d57752d	0.052601982
9	0xbdda0eab	-0.10647329
10	0x3ea14ab6	0.31502312
11	0x3ec11b31	0.37716058
12	0xbf4f360e	-0.80941856
13	0xbeb0ac24	-0.34506333
14	0xbdad5287	-0.084630065
15	0x3d812562	0.06305958
16	0xbf3816e4	-0.7190993
17	0x3f4297f4	0.7601311
18	0xbf1fd8e5	-0.6244033
19	0xbed5749d	-0.4169053
20	0xbf4c29e2	-0.7975141
21	0x3f2fcbc4	0.68670297
22	0xbeaabdff	-0.3334808
23	0xbf257260	-0.6462765
24	0xbeeb60f7	-0.45972416
25	0x3f2dc872	0.6788398
26	0x3d4e60e1	0.05038536
27	0xbe55fc83	-0.20897107
28	0xbf000697	-0.50010055
29	0xbe3abc97	-0.18236004
30	0x3f0ba0e2	0.5454236
31	0xbd02cfba	-0.031936385
32	0x3f2b7882	0.66980755
33	0xbf22a412	-0.635316
34	0x3f00dfb2	0.5034133
35	0xbf31f199	-0.69509274
36	0x3edf772d	0.4364561
37	0xbe98335d	-0.29726687
38	0x3ea4a6e6	0.32158583
39	0xbed3008a	-0.4121135
40	0x3e93fa2c	0.28901803
41	0xbf81ac28	-1.0130663
42	0xbe42b0a4	-0.19012696
43	0xbea79296	-0.32729024
44	0x3f02591f	0.5091724
45	0xbf4ad77e	-0.79235065
46	0x3ec13347	0.37734434
47	0x3f017c64	0.5058043
48	0x3ef2e32c	0.47438943
49	0xbf412308	-0.7544408
50	0x3eec423c	0.46144283
51	0x3e95f0f3	0.29285392
52	0x3f1da877	0.6158518
53	0xbc322b51	-0.010874585
54	0xbf788a52	-0.9708606
55	0xbe9fe33a	-0.31228048
56	0x3ed9488a	0.42438155
57	0xc02d978a	-2.7123742
58	0x3e99b674	0.30022013
59	0xbedf600c	-0.43627965
60	0xbeed90a0	-0.46399403
61	0xbf804b8b	-1.0023054
62	0xbf5ce343	-0.86284274
63	0x3f8b45ef	1.0880717
64	0x3f5a787e	0.85340106
65	0xbe14db8b	-0.14536874
66	0xbf900252	-1.1250708
67	0x3dec6a58	0.11543721
68	0x3eb97402	0.3622132
69	0x3e928162	0.28614336
70	0x3f30c610	0.6905222
71	0xbfa83fe5	-1.3144499
72	0x3ed8f6c9	0.42375782
73	0x3f69b785	0.91295654
74	0xbf3676d0	-0.71275043
75	0xbfa56430	-1.29212
76	0xbe446b2c	-0.19181508
77	0x3f05564d	0.5208481
78	0x3f09450a	0.5362097
79	0xbf795e36	-0.9740938
80	0x3f044cad	0.516795
81	0xbdefd353	-0.11710229
82	0xbd9f4486	-0.07776742
83	0x3f649f30	0.893054
84	0xbf696d35	-0.9118226
85	0xbe979e9e	-0.29613203
86	0xbe8a8cbf	-0.27060506
87	0x3caebd04	0.021330364
88	0xbf4c525a	-0.7981316
89	0x3f0a3c0e	0.53997886
90	0x3f00dff1	0.5034171
91	0x3e649563	0.22322612
92	0x3f36fb03	0.71476763
93	0xbee3e675	-0.44511762
94	0x3e60bdaa	0.21947351
95	0xbe35990c	-0.17734164
96	0xbf9049e2	-1.1272547
97	0x3f0e93d7	0.55694336
98	0xbff8846e	-1.9415414
99	0xbfaab3ab	-1.333608
100	0x3e86839c	0.26272285
101	0x3dababed	0.083824016
102	0xbef21c0a	-0.47287017
103	0xbef0b75d	-0.47014895
104	0x3e9ca9a6	0.3059818
105	0x3f7e975c	0.99449706
106	0x3f0da861	0.5533505
107	0xbe705528	-0.23469985
108	0x3d98c843	0.07460072
109	0xbe916e5f	-0.2840452
110	0xbe377815	-0.17916901
111	0xbe8dbb3b	-0.27681908
112	0x3e4d3af6	0.20042023
113	0xbf394a39	-0.7237888
114	0x3f739404	0.9514773
115	0xbe6d4799	-0.23171844
116	0x3f1f7dc1	0.6230126
117	0x3edd4570	0.4321704
118	0xbf3bab7d	-0.73308545
119	0x3f4f5ff5	0.81005794
120	0xbe84430a	-0.25832397
121	0x3ec6bbc1	0.3881512
122	0xbed466f0	-0.41484785
123	0x3f03dabc	0.5150564
124	0xbf5d7ab7	-0.86515373
125	0xbf0c6471	-0.5484076
126	0xbeab84f5	-0.33499876
127	0xbe147b4d	-0.1450016
128	0x3e470aa6	0.19437656
129	0x3f562b15	0.8365949
130	0x3f200da3	0.6252081
131	0xbdde8fbe	-0.108672604
132	0xbca5e0f6	-0.020248871
133	0xbf585cfb	-0.84516877
134	0xbf1acee6	-0.6047195
135	0xbf0a75a1	-0.5408574
136	0xbf190be9	-0.597838
137	0x3ed0d547	0.40787718
138	0xbeb21f25	-0.34789386
139	0x3f241eb7	0.6410937
140	0xbf42ebd3	-0.7614109
141	0x3f43e527	0.76521534
142	0xbefecc9b	-0.49765477
143	0xbf285d11	-0.6576701
144	0xbf58516f	-0.8449926
145	0xbe81a4d8	-0.25321078
146	0x3f135994	0.5755856
147	0x3ebb5b95	0.3659331
148	0xbdd02990	-0.101641774
149	0x3eb5a7e6	0.3547966
150	0x3cb3a4b1	0.021929117
151	0xbf0763fb	-0.52886933
152	0x3f62aaad	0.8854168
153	0xbf0422fd	-0.5161589
154	0xbe7861f0	-0.2425611
155	0x3e8f2841	0.279604
156	0x3d8a4a67	0.06752472
157	0xbf3e01eb	-0.74221677
158	0x3f032b8c	0.5123832
159	0xbf73280e	-0.94982994
